data.pth (torch, 5759 bytes, 6 tensors)

l1.weight f4 [8, 63]
00000000: 6300 9c3e 8165 173f ea47 c0bd bc0f e03e
00000010: c032 33bf c267 c53e 21cf 573f 1d0d 4d3e
00000020: 14c6 c03e a968 b03e 0049 363f 4630 d43d
00000030: 5782 533d 208f 5dbe 8327 673e 560c a53e
00000040: b2f3 34be 9989 143d c144 cd3e c450 273e
00000050: 73e9 a23e 5948 aa3e 8673 563d 6e25 93be
00000060: d43f 93be 6b3d b23e 9dca cd3d feda d23e
00000070: eaba dc3d f2ec b53e 94a9 aa3e a740 0dbf
00000080: 0112 a3be dfe0 183f c58e f2be 07ef 03be
00000090: fb1e 2d3f 6b37 153f 0a49 bc3e 6ff1 f7bd
000000a0: 5d0a 1cbe 46e4 2c3f b13c 2bbf f7c0 7a3f
000000b0: a0a2 ce3e 5ecd 2f3e 3619 433e 7395 863f
000000c0: 9ac5 0c3f c116 df3e 42a4 e83e 13a3 8e3e
000000d0: 57c3 afbe f541 bf3e 7916 2ebe 1e2c b33e
000000e0: f00e 2fbf 3f94 2ebe 6db6 3d3d 925f c73e
000000f0: 5b5d 86bb a245 32be aa6c aa3e 2c60 003f
00000100: d2e6 ea3e 55f9 10bf 5814 cc3e d32c 61be
00000110: 1eb2 fe3e db21 433f 018e 513e bd4c 3b3f
00000120: 4e9f 3b3f 8845 3a3f d8e3 aa3e 3853 d5be
00000130: 9e83 9cbe 38a6 f33e 5faa bb3e 6f66 143f
00000140: edfa 10bf 9154 e83e 5d8e 6f3c ff42 b83e
00000150: d74e 8f3e f99f d83d 7d51 43bf 173d 43bf
00000160: d2b5 0c3f 4f4a d5be 549d 3f3f 0035 2b3e
00000170: 372c 3d3f 487c 8e3e 10f6 8dbe c2ee 35bf
00000180: 1343 ed3e c3f0 8fbe f327 703e 44a0 343f
00000190: 19fa 033f 48f3 e9bd 8108 9cbe 30a7 9dbe
000001a0: 4bd4 353f f1bf 5ebe 29c6 ecbe 662d 133f
000001b0: fbda 833e b20a 533e 5930 05bf 9c87 193f
000001c0: c7e4 093f 167e 0e3f 96dc e73e 2e80 f0be
000001d0: db4d 943e 1e43 143f 00a8 fb3e 2cc5 173d
000001e0: eb54 903e 1d85 bf3e 243e e6bc 63d5 973e
000001f0: ba45 1d3f 8adf 973e ae0f 063f 9111 a8be
00000200: cdf3 38be d596 603e 3713 4c3e 7aef d0be
00000210: 1231 5bbf 7e50 f23e 701a b43e f659 c33e
00000220: 4e30 23bf a9b7 1a3f afb7 0ebe cb6f 0cbe
00000230: c639 043f cb42 033e 4e93 3fbe 73c3 33be
00000240: 64aa 8e3e b84a 5b3e 65a3 303e 6ded 7b3e
00000250: 66ca ac3d 3a09 dbbe cc7d 64be e223 a53e
00000260: 7808 c3bd 1870 d63e cd1b fd3e 434a 183f
00000270: 349e 55be c2c0 613f cf25 3a3f de3f ab3e
00000280: 920d 6d3f 3856 4d3f 3f80 15bf c428 23bf
00000290: 3bdb 03bf 74a0 8a3e 2a28 273e 332e 21bf
000002a0: 84f8 26bf 7141 b0be 604e 9ebe 6941 b43d
000002b0: 4f42 a93d 2544 96be c3e6 01bf 23f3 6abe
000002c0: c788 df3e 8d59 45be 2237 303e 1f1b b93e
000002d0: 4d38 3fbe e6d6 5fbe ab9e 1ebf 3ea4 553f
000002e0: 2d69 003f 24eb bbbe 4946 053f b874 49bd
000002f0: 3804 72be 004d 5d3e 6f2a db3e 12fb 263f
00000300: 0ce6 bdbe b53d 3ebf d002 e33e d8f0 563f
00000310: b36f 5f3d 8556 06bf f14c cebe 2408 013f
00000320: bd51 533e b999 2b3f 8ff1 db3e af26 f4bc
00000330: 1238 4bbe 94f9 60be 1e66 4a3f f25b 96be
00000340: e7fc 0f3d b5ee 0bbe 9574 033d b482 913d
00000350: ca28 f7bc db8f f9bc 9f17 56be 179f 2a3f
00000360: a795 07bf f3e2 a13d fe57 babe 1b05 cf3e
00000370: eaa4 1ebf 8ec0 60be e4b5 58be 8606 40bf
00000380: 7c64 e63e e498 3b3f d0eb 4c3f a3c4 4f3d
00000390: c5fa 90bd dc8a 91bd 6671 133f 0cd8 0dbf
000003a0: 7497 7f3f ee1c 973e c977 08be b336 173d
000003b0: cc98 773f 6d84 153f 0c56 cb3e 8cd5 fabe
000003c0: ae7f 783e 1ac4 3bbe f4f2 30be c0ab 60be
000003d0: 97c5 363e fb0b 7a3f c688 bb3e 78eb ea3d
000003e0: 7268 f23d 3c77 e43d 69a2 60be cbe8 ae3e
000003f0: 5ff8 c3be b0ee 3ebe ba76 df3e 7c4e 87be
0.30469045 0.5913926 -0.093887165 0.43762004 -0.69999313 0.38555723 0.8430043 0.20024534
0.37651122 0.3445485 0.7120514 0.1036077 0.051637974 -0.21636629 0.22573666 0.32235974
-0.17671087 0.036264036 0.40091518 0.16339403 0.31818733 0.33258322 0.052356265 -0.28739494
-0.28759634 0.34812483 0.10048411 0.41182703 0.107778385 0.35532337 0.33332503 -0.55176777
-0.31849673 0.59718126 -0.4737455 -0.1288415 0.676254 0.58287686 0.36774474 -0.12106597
-0.15238328 0.6753582 -0.6688948 0.9795069 0.40358448 0.17168185 0.19052586 1.0514358
0.54989016 0.43572047 0.4543782 0.2785879 -0.3432872 0.3735501 -0.1700076 0.34994596
-0.6838217 -0.17048739 0.046316553 0.38940102 -0.0041004843 -0.17409375 0.3328603 0.50146747
0.45879227 -0.5663045 0.3985927 -0.21989755 0.49745268 0.76223534 0.20464326 0.7316397
0.73289955 0.72762346 0.33376956 -0.41665053 -0.30569166 0.47587752 0.3665342 0.579688
-0.5663288 0.4537702 0.014621344 0.35988614 0.27989838 0.10577387 -0.76296216 -0.7626509
0.54964936 -0.41658255 0.7484944 0.16719437 0.7389559 0.27829194 -0.27726793 -0.7106744
0.46340236 -0.28113374 0.2345274 0.70557046 0.51553494 -0.11423355 -0.30475238 -0.30791616
0.7102706 -0.21752907 -0.46244934 0.5749115 0.25753006 0.20609549 -0.520269 0.5997255
0.5386471 0.5566114 0.4528548 -0.46972793 0.2896565 0.5791491 0.4915161 0.037053272
0.28189787 0.37406245 -0.028105803 0.2965499 0.6143452 0.29662734 0.52367675 -0.32825902
-0.18061753 0.21932538 0.19929205 -0.40807706 -0.8562175 0.47327036 0.3517642 0.38154572
-0.6374558 0.60436493 -0.13937257 -0.1371452 0.51650655 0.12818448 -0.18708536 -0.17555027
0.27864373 0.21415222 0.1724983 0.2460229 0.08437042 -0.42780477 -0.22313613 0.3225394
-0.095231 0.41882396 0.49435273 0.59488314 -0.20861131 0.8818475 0.7271394 0.33447164
0.9259883 0.80209684 -0.58398813 -0.6373408 -0.51506394 0.2707554 0.16323915 -0.6296112
-0.65222955 -0.34424928 -0.3091917 0.088015385 0.082646005 -0.29348865 -0.5074274 -0.22944312
0.4365904 -0.19272442 0.17208531 0.36153504 -0.18673821 -0.21859321 -0.6196086 0.8345374
0.50160486 -0.36702836 0.5206037 -0.049183577 -0.23634422 0.21611404 0.42805812 0.6522685
-0.37089574 -0.7431291 0.44338083 0.8396125 0.054549884 -0.5247577 -0.40293077 0.50403047
0.2063665 0.6703144 0.42957732 -0.029803602 -0.19845608 -0.21970206 0.7906207 -0.29367024
0.035153296 -0.13665278 0.032093603 0.07105008 -0.030170817 -0.030464103 -0.20907448 0.66649
-0.52962726 0.07904615 -0.36395258 0.40433583 -0.6197039 -0.21948454 -0.21163136 -0.75009954
0.44998538 0.7328017 0.8004732 0.050724637 -0.070790805 -0.071065634 0.5759491 -0.55407786
0.99840474 0.2951426 -0.13326944 0.0369174 0.96717525 0.5840519 0.39714086 -0.48991048
0.24267456 -0.18336526 -0.1728018 -0.21940517 0.17848812 0.9767453 0.36627787 0.11470693
0.118363276 0.11155555 -0.21936955 0.34161982 -0.3827543 -0.1864574 0.4364527 -0.26427066

l1.bias f4 [8]
00000000: 13be 7c3f d498 7b3f cf30 233f 56f5 453f
00000010: 2776 363f dade 4a3f 2267 3e3f 5b55 713f
0.9872753 0.9828007 0.6374635 0.7732748 0.71274036 0.79246294 0.7437612 0.9427087

l2.weight f4 [8, 8]
00000000: 2fa5 913f c8ee 893f eada 80bf 6dc1 86be
00000010: c22f 213f ff86 70bf 0313 e6bd fd42 be3f
00000020: 3d4b 063f 9836 df3f 0bde 24bf 49f0 2f3f
00000030: 7245 033d 47be a1bf 6740 94bf 3508 7a3f
00000040: d8e2 723f 2fc2 b63f 7f88 c43f ab8d 28bf
00000050: a2e9 a2bf f498 2d3f 4d2c e23f cf93 cbbc
00000060: 72ae fabe b6d5 2a3f 5f64 cc3f 1b3e 84be
00000070: eb16 683e 714d f03f 86a5 0040 7b1e 2cbe
00000080: 1259 47bf b8fd aebf 42ae 4cbe b21e b8bc
00000090: ecf7 df3f 7433 a93f 9e88 3a3f a6e8 ad3f
000000a0: 28a0 ad3d 1061 37be a139 8cbe f23c 1bbe
000000b0: 88f0 d6bd 20de 163d 6f04 0cbe 463e 0ebe
000000c0: 5621 c63f b6f6 9f3e 1608 9bbf a01d ee3f
000000d0: f425 823f 7cdf b43f 5c1d 09bf 1806 78bf
000000e0: 327a b13f f998 a43f 07ed cbbe 989a b63f
000000f0: 96c7 72bd e797 4a3f 7207 97be b814 a4bf
1.1378535 1.0775995 -1.0066807 -0.26319447 0.629635 -0.9395599 -0.11234095 1.4864193
0.52458555 1.7438536 -0.6440131 0.6872602 0.03204865 -1.2636193 -1.1582154 0.9766877
0.94877386 1.427801 1.5354155 -0.6584117 -1.2727549 0.6781151 1.766977 -0.024850754
-0.48961216 0.66732347 1.5968131 -0.25828633 0.22664993 1.8773633 2.0101027 -0.16808502
-0.77870286 -1.3671179 -0.19988349 -0.022475574 1.7497535 1.3218827 0.7286471 1.3586624
0.08477813 -0.1790812 -0.27387717 -0.15159968 -0.104950964 0.03683293 -0.13673566 -0.13890943
1.5478923 0.31242913 -1.2111843 1.8602791 1.0167832 1.4130702 -0.53560424 -0.968843
1.3865416 1.2859184 -0.39829275 1.4265928 -0.05927237 0.79138035 -0.29497868 -1.2818823

l2.bias f4 [8]
00000000: 0446 243f 2aea 283f be34 263f 1ada 4b3f
00000010: 5829 db3e 892e 18be 24a7 383e c248 823e
0.64169335 0.65982306 0.6492423 0.7962967 0.4280498 -0.14861502 0.18032509 0.25446135

l3.weight f4 [11, 8]
00000000: 0abd 6a3f 9111 7c3f 9fbe 40bf 0093 6ebe
00000010: ed55 ba3e 8613 533e 2471 a9bf 6017 b5bf
00000020: 9df0 babe 6bc2 83bf 54fb 533f 5863 4b3f
00000030: 2a91 15bc 00e4 6d3d 1882 aebf cfee f9bf
00000040: 5be8 03be 315f 4abe 4510 fb3d e31d b1bd
00000050: ec70 d5bf 88c9 a3be aca7 183f 0d73 023f
00000060: b0f0 2b3f fc5c 873f 58d6 1abe f7c7 b0bf
00000070: 69b8 a0bf 4038 abbb e210 1abe c502 973d
00000080: d73b 223f 3bd7 743e 8b8e 383f bb55 5a3e
00000090: e707 c0bf 1835 a3be 81be b1bf 52d3 4fbe
000000a0: 1bb4 d6bf d48b d1bf 4202 98bf ac43 71bd
000000b0: 5dae 873e 1047 fe3d 5719 5f3f ab62 223f
000000c0: fbd2 9a3e 4ce4 7bbe 0ab0 8bbf ac0e d5bf
000000d0: 670c bebe b649 3b3e dcf7 543f 1a37 933e
000000e0: 5ea4 c43e eede 8f3e c671 d5bf 577b 643e
000000f0: 1fa7 db3d f1b1 983e 0702 af3e f255 c6be
00000100: 5304 12be aade bdbf aad0 143e 6e8f 7c3e
00000110: 66c2 b03e 8220 703e ed2a b13e 8e87 dabe
00000120: 1dbf e5bf 0908 c8bf 768a 1a3f d4f0 293f
00000130: f6b4 97bf 7aeb 74be 2ade 29be 2c72 f63e
00000140: 97a0 353d d432 e3bf 12fb b8be f5ea 9b3e
00000150: 9cd3 973f 0dff a53e 5c1e aabf cf1c b3bf
0.916947 0.98464304 -0.75290865 -0.23298264 0.3639368 0.20612916 -1.3237653 -1.4147758
-0.36511698 -1.0293707 0.8280537 0.7944846 -0.009128848 0.058078766 -1.3633451 -1.9526004
-0.12881605 -0.19762875 0.122589625 -0.086482786 -1.6675086 -0.31989694 0.59630847 0.50956804
0.67164135 1.0575252 -0.15120828 -1.3811024 -1.2556278 -0.0052252114 -0.15045503 0.07373575
0.6337256 0.23910229 0.72092503 0.21321766 -1.5002412 -0.31876445 -1.3886262 -0.20295456
-1.6773714 -1.6370797 -1.1875689 -0.058902428 0.26500216 0.12415898 0.8714804 0.63431805
0.3023909 -0.24598807 -1.0913098 -1.6645103 -0.37118837 0.18289837 0.83190703 0.28752977
0.38406652 0.2809977 -1.6675346 0.22312675 0.10725235 0.2982326 0.34181234 -0.38737446
-0.14259462 -1.4833577 0.14532724 0.24664089 0.34523314 0.23449901 0.34603062 -0.42681545
-1.7948948 -1.5627452 0.60367525 0.663831 -1.18521 -0.23917952 -0.16588655 0.4813398
0.044342604 -1.7749887 -0.3612905 0.30452695 1.1861453 0.3242115 -1.3290515 -1.3993167

l3.bias f4 [11]
00000000: 8a01 6f3d b036 c73e c87e 86be 0983 493c
00000010: 15e2 da3e 6e8a 2abe 8781 773d 5019 19be
00000020: 245a fabe 830b 943d 5c23 2dbd
0.058351077 0.3890891 -0.262686 0.012299308 0.42750612 -0.16654369 0.06042626 -0.14951062
-0.48896897 0.07228758 -0.04227005
